…
cution":{"iopub.status.busy":"2024-09-07T07:14:32.810398Z","iopub.execute_input":"2024-09-07T07:14:32.811534Z","iopub.status.idle":"2024-09-07T07:14:33.574123Z","shell.execute_reply.started":"2024-09-07T07:14:32.811488Z","shell.execute_reply":"2024-09-07T07:14:33.572511Z"},"trusted":true},"execution_count":49,"outputs":[{"name":"stdout","text":"Model: \"sequential\"\n_________________________________________________________________\n Layer (type)                Output Shape              Param #   \n=================================================================\n conv1d (Conv1D)             (None, 2376, 512)         3072      \n                                                                 \n batch_normalization (Batch  (None, 2376, 512)         2048      \n Normalization)                                                  \n                                                                 \n max_pooling1d (MaxPooling1  (None, 1188, 512)         0         \n D)                                                              \n                                                                 \n conv1d_1 (Conv1D)           (None, 1188, 512)         1311232   \n                                                                 \n batch_normalization_1 (Bat  (None, 1188, 512)         2048      \n chNormalization)                                                \n                                                                 \n max_pooling1d_1 (MaxPoolin  (None, 594, 512)          0         \n g1D)                                                            \n                                                                 \n dropout (Dropout)           (None, 594, 512)          0         \n                                                                 \n conv1d_2 (Conv1D)           (None, 594, 256)          655616    \n                                                                 \n batch_normalization_2 (Bat  (None, 594, 256)          1024      \n chNormalization)                                                \n                                                                 \n max_pooling1d_2 (MaxPoolin  (None, 297, 256)          0         \n g1D)                                                            \n                                                                 \n conv1d_3 (Conv1D)           (None, 297, 256)          196864    \n                                                                 \n batch_normalization_3 (Bat  (None, 297, 256)          1024      \n chNormalization)                                                \n                                                                 \n max_pooling1d_3 (MaxPoolin  (None, 149, 256)          0         \n g1D)                                                            \n                                                                 \n dropout_1 (Dropout)         (None, 149, 256)          0         \n                                                                 \n conv1d_4 (Conv1D)           (None, 149, 128)          98432     \n                                                                 \n batch_normalization_4 (Bat  (None, 149, 128)          512       \n chNormalization)                                                \n                                                                 \n max_pooling1d_4 (MaxPoolin  (None, 75, 128)           0         \n g1D)                                                            \n                                                                 \n dropout_2 (Dropout)         (None, 75, 128)           0         \n                                                                 \n flatten (Flatten)           (None, 9600)              0         \n                                                                 \n dense (Dense)               (None, 512)               4915712   \n                                                                 \n batch_normalization_5 (Bat  (None, 512)               2048      \n chNormalization)                                                \n                                                                 \n dense_1 (Dense)             (None, 7)                 3591      \n                                                                 \n=================================================================\nTotal params: 7193223 (27.44 MB)\nTrainable params: 7188871 (27.42 MB)\nNon-trainable params: 4352 (17.00 KB)\n_________________________________________________________________\n","output_type":"stream"}]},{"cell_type":"code","source":"history=model.fit(x_tr
…
